…
                                    tf.keras.layers.Dense(128, activation = 'relu'),
                                    tf.keras.layers.Dense(10, activation = 'softmax')
                                   
   model.compile(optimizer = 'Adam',
              loss = 'sparse_categorical_crossentropy',
              metrics = ['accuracy'])
              
   model.summary()
   o/p:Model: "sequential"
_________________________________________________________________
Layer (type)                 Output Shape              Param #   
=================================================================
conv2d (Conv2D)              (None, 26, 26, 128)       1280      
_________________________________________________________________
max_pooling2d (MaxPooling2D) (None, 13, 13, 128)       0         
_________________________________________________________________
conv2d_1 (Conv2D)            (None, 11, 11, 64)        73792     
_________________________________________________________________
max_pooling2d_1 (MaxPooling2 (None, 5, 5, 64)          0         
_________________________________________________________________
dropout (Dropout)            (None, 5, 5, 64)          0         
_________________________________________________________________
flatten (Flatten)            (None, 1600)              0         
_________________________________________________________________
dense (Dense)                (None, 128)               204928    
_________________________________________________________________
dense_1 (Dense)              (None, 10)                1290      
=================================================================
Total params: 281,290
Trainable params: 281,290
Non-trainable params: 0

model.fit(train_imgs, train_labels, epochs = 20)
o/p:Epoch 1/20
1875/1875 [==============================] - 17s 9ms/step - loss: 0.0462 - accuracy: 0.9855
Epoch 2/20
1875/1875 [==============================] - 17s 9ms/step - loss: 0.0341 - accuracy: 0.9894
…
